checkpoint.pth.tar (torch_old, 1512 bytes, 5 tensors)

0.weight f4 [4, 3]
00000000: 34b7 8d3f e0ec 85bf 752f 76ba c72a 8abc
00000010: 2960 2840 a6b8 00c0 2310 20bf 42ac cd3d
00000020: d5d8 31bf 9322 d4bc 5c64 d1be 9da1 d13f
1.1071534 -1.0462914 -0.0009391227 -0.016866101 2.6308692 -2.01127 -0.6252462 0.10042621
-0.69471484 -0.025895393 -0.4089688 1.6377445

0.bias f4 [4]
00000000: cf23 c4c0 17ab b240 b37d cebc f96c a53f
-6.129371 5.583385 -0.025206422 1.2923881

2.weight f4 [6, 4]
00000000: ec7a a23e 8b4c eb3f 1908 fdbd 151c f93e
00000010: c8a5 863f c2e1 2c3f 64d7 dc3e 6a64 a2be
00000020: 4fa1 233f 6eaa dd3f 78c5 b2bd ace0 373f
00000030: a030 d2bf b0a5 a83c f79c 313f bc55 c5be
00000040: 6d5d 073f e5e7 4cc0 700e cabe b407 a2bf
00000050: 3223 013f d072 7ac0 63f9 df3e 9fc1 9abf
0.31734407 1.8382734 -0.1235506 0.48654237 1.0519342 0.6753198 0.4313308 -0.31717235
0.6391801 1.7317636 -0.087290704 0.718272 -1.6421089 0.020586818 0.69380134 -0.38541973
0.5287693 -3.2016537 -0.3946414 -1.2658601 0.5044433 -3.9132576 0.43744954 -1.2090338

2.bias f4 [6]
00000000: 5318 34be 64fc 6abf 9bee 64bb e5b6 f0be
00000010: 2f75 3cc0 e2e6 3cc0
-0.17587404 -0.9179137 -0.003493226 -0.47014537 -2.9446523 -2.951592

4.weight f4 [1, 6]
00000000: 61fd 823e 05ee a13f b499 993f d597 ecbe
00000010: 33c0 dabf 25fd cfbf
0.25583938 1.2650763 1.2000031 -0.4620959 -1.7089905 -1.6249129
