checkpoint.pth.tar (torch_old, 1351 bytes, 4 tensors)

0.weight f4 [10, 4]
-0.09347232 -0.22179225 0.5241936 0.15206307 -0.30594915 0.19336522 -0.41600972 0.053655088
-0.3301347 0.3010654 -0.37004185 -0.2913496 -0.4264918 -0.11854589 -0.12165284 -0.3215176
-0.054003447 -0.23730925 0.5618357 0.6239719 0.10274291 -0.32228255 -0.33552796 0.21455449
0.19614246 -0.4751826 0.23807591 0.14565597 -0.3737179 -0.06202793 0.256288 -0.35956746
-0.12177074 -0.07824737 0.0061379075 0.33391982 -0.23500025 -0.17860568 -0.13615465 0.03652996
00000000: 6a6e bfbd 821d 63be 8d31 063f 6cb6 1b3e
00000010: 5ea5 9cbe 8801 463e 3aff d4be 70c5 5b3d
00000020: 6a07 a9be 3e25 9a3e 2076 bdbe c62b 95be
00000030: 225d dabe 30c8 f2bd 2025 f9bd f49d a4be
00000040: b832 5dbd 3201 73be 77d4 0f3f 9fbc 1f3f
00000050: e06a d23d 3802 a5be 52ca abbe 2cb4 5b3e
00000060: 92d9 483e 224b f3be 2cca 733e d726 153e
00000070: f457 bfbe 0011 7ebd 2e38 833e 3a19 b8be
00000080: f062 f9bd 2840 a0bd 8020 c93b 8af7 aa3e
00000090: e8a3 70be 68e4 36be 206c 0bbe 70a0 153d

0.bias f4 [10]
0.31337768 -0.27392733 -0.36543489 -0.09575218 -0.049411025 0.03541833 0.4380489 -0.016933084
-0.3731861 0.43415457
00000000: 0a73 a03e 3440 8cbe 481a bbbe b819 c4bd
00000010: 3763 4abd d012 113d f247 e03e 40b7 8abc
00000020: 4012 bfbe 8249 de3e

2.weight f4 [3, 10]
-0.4980741 -0.28485996 -0.27681863 0.032626927 -0.52384067 -0.19173308 0.0059345993 -0.28423235
-0.19308648 -0.087020606 0.016898077 -0.07170397 -0.23995864 0.30476812 0.08091718 -0.18764563
0.43834925 -0.2598368 0.121686906 -0.12203701 0.15802442 -0.11198838 0.28951654 -0.3026199
0.43122134 0.07156426 -0.020856017 -0.29946378 -0.016527057 -0.25870878
00000000: 9203 ffbe 2ad9 91be 2cbb 8dbe d0a3 053d
00000010: 6c1a 06bf ad55 44be 0777 c23b e786 91be
00000020: 76b8 45be dc37 b2bd d66d 8a3c 88d9 92bd
00000030: b8b7 75be 910a 9c3e e8b7 a53d 2d26 40be
00000040: 506f e03e 5409 85be fc36 f93d 8aee f9bd
00000050: 27d1 213e 2a5a e5bd 833b 943e fff0 9abe
00000060: 0bc9 dc3e 4890 923d 3dda aabc 5153 99be
00000070: c063 87bc 7a75 84be

2.bias f4 [3]
0.59176356 -0.13201274 -0.3448692
00000000: d17d 173f 592e 07be b292 b0be
