model_best.pth.tar (torch_old, 1351 bytes, 4 tensors)

0.weight f4 [10, 4]
0	0xbd4bd5c1	-0.0497644
1	0xbe0a0881	-0.13479806
2	0x3f13a8d0	0.5767946
3	0x3e24d7c8	0.16097939
4	0x3f4117e8	0.75427103
5	0x3e7e3298	0.24823987
6	0xbf20c8b8	-0.6280627
7	0xbf52adc9	-0.82296425
8	0xbea2afa1	-0.3177462
9	0xbe3fc910	-0.18729043
10	0xbe1a7b5a	-0.15086117
11	0x3f05921c	0.5217607
12	0x3d78942d	0.060688186
13	0x3f27a052	0.65479004
14	0xbebbec45	-0.36703697
15	0x3c464f25	0.01210383
16	0x3e188ccd	0.14897461
17	0xbe4f3f9e	-0.20239112
18	0x3e2eda23	0.170754
19	0x3e9a99f2	0.30195576
20	0xbda72803	-0.081619285
21	0xbecce577	-0.40018818
22	0x3f316d23	0.69307154
23	0x3de3d421	0.11124445
24	0xbebc76d4	-0.3680941
25	0xbeee91b1	-0.4659553
26	0xbe75d898	-0.24008405
27	0xbf191d62	-0.5981046
28	0xbf21ccbb	-0.6320302
29	0xbf046a3c	-0.517246
30	0x3f04e68e	0.519143
31	0xbec76297	-0.38942406
32	0x3e0bb0d3	0.13641672
33	0xbe51b499	-0.20479049
34	0xbea42c46	-0.32065028
35	0xbf1cf695	-0.61313754
36	0x3eec8055	0.4619166
37	0x3f0ede67	0.5580811
38	0xbf5f6b8f	-0.87273496
39	0xbf32f036	-0.6989778

0.bias f4 [10]
0	0xbd4c732a	-0.049914517
1	0x3ddd9b44	0.1082063
2	0x00000000	0.0
3	0x3d81f552	0.06345619
4	0xbd968afb	-0.07350727
5	0xbdd25d3d	-0.1027169
6	0x00000000	0.0
7	0x00000000	0.0
8	0x00000000	0.0
9	0x3d7a80f6	0.061158143

2.weight f4 [3, 10]
0	0xbf2afc75	-0.6679147
1	0x3d85264a	0.06501444
2	0x3bfd784e	0.0077352887
3	0x3e957320	0.29189396
4	0xbee755f5	-0.45182768
5	0xbe9e3ea8	-0.30907178
6	0xbcbdfa62	-0.02319068
7	0xbf252dcb	-0.64523
8	0xbeccc046	-0.39990443
9	0x3f82eb34	1.0228028
10	0x3f171d59	0.59029156
11	0x3f17db17	0.5931868
12	0x3dec144b	0.11527308
13	0x3d1cc7c3	0.038276445
14	0x3ecf9c7f	0.40549085
15	0xbf10ea4d	-0.56607515
16	0x3dc788f4	0.097429186
17	0xbf1e0bd7	-0.61736816
18	0xbf0639c7	-0.5243191
19	0xbf5640c4	-0.83692575
20	0x3f47dbf4	0.78069997
21	0xbf887c0f	-1.066286
22	0xbea9e4c4	-0.33182347
23	0xbee2dce2	-0.44309145
24	0x3e96ef62	0.2947951
25	0x3f00aa4b	0.50259846
26	0xbed7e0fc	-0.42163837
27	0xbee60f5c	-0.44933593
28	0x3eb62610	0.35575914
29	0x3eefa68a	0.46806747

2.bias f4 [3]
0	0x3de1a4b3	0.11017742
1	0x3cfdefe1	0.030998172
2	0xbe10904c	-0.14117545
