models/model_best.pth.tar (torch_old, 1907 bytes, 7 tensors)

0.weight f4 [4, 3]
00000000: 109c 903e 0e6a 9f3e a7b4 463f 6783 20bf
00000010: 82c3 04be 9c4f 4dbf 9feb d93c 34f7 5e3e
00000020: b028 313f a421 72be 4d8b 48bf e4fa 933b
0.28244066 0.311356 0.77619404 -0.62700504 -0.12965205 -0.801996 0.02660161 0.21773988
0.6920271 -0.23645645 -0.78337556 0.0045159925

0.bias f4 [4]
00000000: 7679 6bc1 0000 0000 0877 6a41 5476 a4bc
-14.717154 0.0 14.65406 -0.020075954

2.weight f4 [6, 4]
00000000: 6d91 4bbf 1b09 f7be f7ec c0bc 66ab dfbe
00000010: 48f9 c4bf 4f0c 2dbf e595 f93f fcd2 b43e
00000020: ec61 983f b244 183f 842e 8abf a17c d43e
00000030: a903 e0be a559 453f 90cb d1bc 98aa 34bf
00000040: b13f 073f f909 093f 8c86 ee3e 0bd3 413f
00000050: 83f5 7ebf b7bd e8be 7954 ab3f df21 15bf
-0.7951878 -0.48249134 -0.023550494 -0.43685454 -1.5388575 -0.67596906 1.9498869 0.35317218
1.1904883 0.5947982 -1.0795445 0.41501334 -0.43752792 0.7708991 -0.025609761 -0.70572805
0.5283156 0.5353084 0.46587026 0.7571265 -0.9959337 -0.4545724 1.3385154 -0.5825481

2.bias f4 [6]
00000000: 3950 1dbe b77b 5741 ee46 1ac1 2f10 58be
00000010: 40d2 7640 15c5 5c41
-0.15362634 13.467704 -9.642317 -0.21099924 3.8565826 13.798116

4.weight f4 [5, 6]
00000000: 244a 9cbe bb4b 48bf d991 353f adb1 2dbf
00000010: 71a5 94be 91a0 03c0 f0a9 6e3e ddcf 8e40
00000020: b31e adbf bc13 523e 7a6f 4e3e cf04 1140
00000030: 1cbf 333f 1b06 8640 fa93 8fc0 89af babe
00000040: edb4 93be 16c6 0640 1870 9f3e 5346 c43e
00000050: 201c 29bd 094a 0dbf be81 86be e658 0cbf
00000060: 22a2 a3be 0f13 5d40 51fd b7bf 5109 6d3e
00000070: 878c 263f 8372 9b3f
-0.30525315 -0.78240556 0.7092567 -0.67849237 -0.29032472 -2.0566752 0.23307014 4.462874
-1.3524994 0.2051534 0.20159712 2.2659185 0.70213485 4.1882453 -4.4868135 -0.36462048
-0.28848973 2.1058402 0.31140208 0.38334903 -0.041286588 -0.55191094 -0.2627086 -0.5482315
-0.31959635 3.4542882 -1.4374181 0.23148085 0.6505818 1.2144321

4.bias f4 [5]
00000000: e5e0 40bf 3e18 1b41 d82b 7d40 0000 0000
00000010: 40a7 1541
-0.7534316 9.6934185 3.955801 0.0 9.3533325

6.weight f4 [1, 5]
00000000: 800e a340 6b58 8640 6c55 dbc0 fcbd 14bf
00000010: d9f4 3240
5.09552 4.198293 -6.8541775 -0.58102393 2.7961943
